Transfer-Learning-On-Counting-MNIST-Dataset/classification_net.pt (torch_old, 826659 bytes, 14 tensors)

conv1.weight f4 [30, 1, 3, 3]
00000000: da32 343d 4f13 9a3e c2de eabd c098 593e
00000010: afe4 4fbd 79a3 f23d 6262 80be 3feb 0c3e
00000020: 8c5d 52bb 0181 50bb e686 46bd 5874 163e
00000030: 759a 603e ec76 b7bc a826 083e 8527 003e
00000040: 54d3 ae3d dcef 5a3e ed6b 0c3e d261 a13e
00000050: 37be 953e dffe 40bd 0650 4fbe 6a2a 26be
00000060: 773c d8be 4db8 66be 9162 7f3e 32f6 4fbe
00000070: 3e9b 903e 279c a9bd 57c4 0abf 6688 c5bb
00000080: 7993 573e bfe3 77be 2b16 f13d 9d59 b53e
00000090: 2614 11bf a37f f6bd 1a17 963e 5a21 c5be
000000a0: 7a84 4c3e f349 9c3e 585c 3b3c 8557 763e
000000b0: 6afa 183d c683 e9bc 30ad fa3d 5d5c 943e
000000c0: 5969 193d e8f7 1cbe 0e82 df3e 5b9a 76be
000000d0: b48f fcbe 719d 42bd c4bb 93be 2469 42be
000000e0: 3d6d 333e dff5 d9bd 76a2 c23e 0137 223e
000000f0: 7439 833d d78c e53d 9a29 efbe e84a abbe
00000100: 3530 55bf 1ea2 f0be 16b4 b0be 18e6 3b3e
00000110: e5e0 b23b 5a5b 713d 6107 a53e 59ab 243e
00000120: ad0e 523e b038 38be 5dda 3abe e6d7 9dbc
00000130: db27 a0be 5f53 c9be e02f c53e 81fb c13e
00000140: 0012 763b b45b af3e a142 bb3d 5773 7abd
00000150: 1b95 e93e 87ce c0be 70a1 c0be f5ff 9f3c
00000160: 3fa7 7ebe 48f4 b83d 93aa 493d a9ed 41be
00000170: abac 9fbe 8dfa 61bd 8be9 a2be fc1d febc
00000180: 6ae8 0f3d afca c43e ab37 a93e 45ac 5cbd
00000190: fd37 c83e 1183 06be ae41 0f3e 257c 97be
000001a0: f946 fbbe 8771 2bbe 9f03 503e 1d8a c43e
000001b0: 0d5e e73e e96d cc3e 61b0 383e a96f 363c
000001c0: 50c2 cbbd 0606 9ebc 4f9e f7be 607a debe
000001d0: 30af 52bc 7c1c 2ebd faa3 7a3c b34a d63c
000001e0: 7a82 413e a242 b93e e0b8 bebe 956f 66be
000001f0: ddfc 493e 3edb 863e bc1c cb3d 853a be3d
00000200: 0bfd f2be ab73 8c3d 0683 0f3e 241a ddbe
00000210: 3689 d03e 35e9 5f3e dd41 e23c e049 3d3e
00000220: 9838 04bd 4f8f 3cbe a643 ee3c 45ca 7abe
00000230: b2f8 34bb 4028 6a3e a84f 933e e02d e4bd
00000240: a1f1 25bf 171f 52be 1fbf 013e bf53 1fbf
00000250: a05b 74bc f766 973e 50ee d6be 4a16 39be
00000260: bf36 113d 71a2 37be b337 2ebf 86e5 c9be
00000270: a677 9cbe f073 14be 783f 753e f618 abbe
00000280: 481d c83c a630 143f 04b8 c13d b42e 593e
00000290: a277 953e f9f1 a53e e1af 853e 8cd3 90bd
000002a0: ba66 a5be 5b15 dcbe 09fe ecbe b4e4 843c
000002b0: a3a3 a33c b715 8fbe 8e34 d5bd 76dd 2b3e
000002c0: 6277 df3e 8154 9fbc d198 923e e1ed bdbe
000002d0: f396 f23d f77e d13d d4cb b7be 66ef 023f
000002e0: 64a0 373d cf43 0ebf b427 b2bd 8833 e5be
000002f0: a659 5abe c181 343d 5331 d23e 3d22 8abd
00000300: 8bb2 88be e50a bd3e 22b6 af3e 2b34 f9be
00000310: be55 b6be 2019 e3bc f09c 4e3e 3924 ab3e
00000320: 2a29 0bbe 0334 d4bd 95b0 813d 983d 21be
00000330: 346d 973e 8ffa 87be b69c 99be 8ede 63be
00000340: 282e fe3d 54ac 833e 57eb fcbd 3e30 0fbf
00000350: 953f e7be 9e40 f33d 88c4 763e dee5 a43d
00000360: 0a13 95be b394 eabe e9a9 adbc 4c96 f13d
00000370: 04dc 6b3d e6db e93e 9aa7 a93e 87a2 bbbe
00000380: 1b17 143e 139a 3bbe ad17 87be 36c3 07be
00000390: bbbf 29be b305 3ebe 2e41 86be 2029 b13e
000003a0: 4f26 a13e 16c6 b03e a4b5 41be 0748 92be
000003b0: 0d65 1abe 27f6 a03e a376 de3e 2b80 b13e
000003c0: d27c 82be 28f3 bcbe 5def b9be 3293 8ebe
000003d0: a99d 37bd 41d8 043e b519 c5bd 64ee 26be
000003e0: a3b5 9c3e e12e 30be 68bc 553e 57d8 16bf
000003f0: 0215 e73b 2111 3e3b 59e7 55be a693 9cbe
0.04399381 0.30092856 -0.11468269 0.21249676 -0.0507552 0.11847586 -0.2507506 0.13761614
-0.0032099215 -0.0031815174 -0.048468493 0.14692819 0.2193392 -0.022395574 0.13295996 0.12515076
0.085364014 0.21380562 0.13713045 0.31519943 0.29246685 -0.047118064 -0.2024537 -0.16227117
-0.4223363 -0.22531243 0.24939944 -0.2030876 0.2824344 -0.08281737 -0.5420584 -0.006028223
0.2105235 -0.24207972 0.11771806 0.35419932 -0.5667137 -0.120360635 0.293145 -0.38502008
0.19972411 0.3052517 0.011435591 0.24056824 0.03734819 -0.028505217 0.12240064 0.28976718
0.037453983 -0.15328944 0.4365391 -0.2408232 -0.49328387 -0.04751343 -0.2885419 -0.1898542
0.1752214 -0.10642599 0.38014573 0.15841295 0.06407443 0.11208504 -0.46711427 -0.33455586
-0.83276683 -0.46998686 -0.34512395 0.18349493 0.0054589384 0.05892501 0.32232192 0.16080989
0.20513411 -0.17990375 -0.18247361 -0.019267987 -0.31280407 -0.3932142 0.38513088 0.37887195
0.003754735 0.3424965 0.09143568 -0.061145153 0.4562157 -0.37657568 -0.37623167 0.01953123
-0.24868487 0.09030968 0.049234938 -0.18938316 -0.31186423 -0.055170584 -0.31818804 -0.031020157
0.035133757 0.38435885 0.33050284 -0.053875227 0.39105216 -0.13135935 0.13989899 -0.29586902
-0.49077585 -0.16742526 0.20313881 0.38386622 0.45188943 0.39927605 0.18036033 0.01113502
-0.099491715 -0.019289982 -0.48362967 -0.4345274 -0.012859151 -0.042507634 0.015297884 0.026158666
0.18897429 0.3618365 -0.37250423 -0.22503503 0.19725366 0.26339144 0.0991759 0.092885055
-0.4745868 0.068579994 0.14014825 -0.43184006 0.40729684 0.21866305 0.027619297 0.18485212
-0.032280535 -0.18414043 0.029084992 -0.24491222 -0.0027614054 0.22866917 0.2877171 -0.111415625
-0.6482182 -0.20519672 0.12670563 -0.6223716 -0.014914423 0.29570743 -0.41978693 -0.18074909
0.0354526 -0.1793306 -0.6805374 -0.39432925 -0.30560035 -0.14497352 0.23949993 -0.3341748
0.024428025 0.5788673 0.09458926 0.21209222 0.29192835 0.32411173 0.26110747 -0.07071599
-0.32304937 -0.42985043 -0.46287563 0.016222335 0.019975489 -0.27946255 -0.10410415 0.167837
0.4364577 -0.019449474 0.28632215 -0.3709555 0.118451975 0.10229295 -0.35897696 0.51146543
0.044830695 -0.5557222 -0.08698979 -0.44765878 -0.2132326 0.044069055 0.41053256 -0.06744812
-0.26698717 0.36922374 0.34318644 -0.48672614 -0.3561229 -0.027721941 0.20177054 0.33426073
-0.13589922 -0.10361483 0.063325085 -0.15746152 0.29575503 -0.2655835 -0.30002373 -0.22252867
0.12411147 0.25717413 -0.12349575 -0.55932987 -0.45165697 0.11877559 0.24098408 0.08051656
-0.29116088 -0.45816574 -0.021199184 0.11796245 0.05758287 0.45675582 0.33135682 -0.36647436
0.14461939 -0.18320493 -0.2638525 -0.13258061 -0.16577046 -0.18556862 -0.26221603 0.34601688
0.3147454 0.34526128 -0.18916947 -0.28570578 -0.1507761 0.314378 0.43449888 0.34668097
-0.25485855 -0.36904263 -0.36315432 -0.27846676 -0.04482809 0.1297312 -0.09624044 -0.16301876
0.30607328 -0.17205383 0.20872653 -0.5892386 0.007052065 0.002900191 -0.20889033 -0.30581397

conv1.bias f4 [30]
00000000: 1ffd 33be 031b 85be bd75 e9bd eb99 e2bd
00000010: 46ef 87be 130a 60bc 2d7d e6bd 7596 893e
00000020: 85aa 823b 8f99 b23d c4eb ab3c d49e 8abc
00000030: c2c5 87bd 9f58 95be 33d3 28bc 30f0 c0bd
00000040: 7203 7a3e c0b9 96bb 56d2 a9bc 6e63 9abd
00000050: 532f 693d fdad 16bd 9ad6 dabd 4f1a af3d
00000060: ff04 b1bc f577 79bc 41e6 053d 1c1b 82bc
00000070: 0d11 82bc 7c77 9bbe
-0.17577027 -0.2599717 -0.1139941 -0.11064514 -0.2654974 -0.013674277 -0.11254344 0.26872602
0.0039876127 0.08720695 0.020986445 -0.016921438 -0.06629516 -0.29169175 -0.01030426 -0.09420812
0.24415377 -0.00459978 -0.020730179 -0.07538496 0.056929898 -0.036787022 -0.10685463 0.0854994
-0.021608828 -0.015226354 0.03269029 -0.015882067 -0.015877271 -0.30364597

conv2.weight f4 [60, 30, 2, 2]
00000000: fe9b f7bd 1167 97bc d528 833c ae53 4fbd
00000010: 1f61 183c 4293 e6bd c7be 0a3b 6503 5abd
00000020: 6ad3 9ebe 19c6 f7bd e954 1cbc e124 6cbd
00000030: 2a93 3fbe b230 87bd 2f27 c7be 9f3d 78be
00000040: d0e9 26be a30e 39bd 372a 94bd d787 c03c
00000050: d346 82be fd8c 4bbe f0be 933d 9dd3 313e
00000060: 9320 94bd 5fc3 c03d 24e2 12be 5b91 2abd
00000070: 40eb dd3d 2382 223c 5a8c b33c aeb5 17bd
00000080: 2ea6 d73c 27cf bfbd d0f2 1ebd 734c 05be
00000090: 50a7 8e3d a128 47be dd86 2fbe 36e9 06be
000000a0: fdcc 403d 1b58 0e3e 4001 8bbd c027 88bd
000000b0: 937d e6bd de06 71bc 4a13 69be f2b9 1e3e
000000c0: 1513 96be 781a 55be 2e1b 313d 1c77 4b3e
000000d0: 97a0 2a3c ff30 f2bd 2e93 82bd 55b9 8dbc
000000e0: d2cc 20bd 8463 003e 64e0 47be 9bd1 0cbe
000000f0: 903a edbc 1bc8 65bd 4659 f8bd 0328 9bbd
00000100: ec76 f8bd 895f e9bd 453d 16bd 38ca 913b
00000110: 3d71 0b3e 15d3 a43d 3928 08be 3a65 1cbe
00000120: a98c 08be b173 ffbd 5d82 3b3e c1fd e43d
00000130: 98bb bd3c 1d7a 31bb bdcd afbd 13f6 41bd
00000140: 8fe6 193d 38ae da3d 1019 e93b a136 fa3c
00000150: 815b 9cbe 7f89 13be 50e8 ab3d 225b 713e
00000160: 3669 ad3d e4be 08be bca1 dfbd 0498 bf3b
00000170: b1b2 a6bd 49f8 083d e42b 93be 2d69 a4bd
00000180: 9d09 ca3d 6e21 6f3d d1e5 693d 2635 e53d
00000190: 0a81 0f3e 1767 463e 1289 d03d 937f cc3b
000001a0: 7eae c4bd fdd9 63bc 0ad4 163e 1555 ea3d
000001b0: 6e47 1dbd 29eb 063e 063d fc3a cb84 1d3e
000001c0: 7954 30be 98b7 a3bc 05ce e3bd 085b d3bd
000001d0: 5a25 fabc dd89 e7bd 47c2 66bd aec7 b3bd
000001e0: 7c3c eebc c1ee 073e b221 a9bd 0961 7b3d
000001f0: c795 aabc 27dc db3d dae5 01bd 26f7 123e
00000200: 247a 163e 4237 483d 5404 0d3e 9c0b 033d
00000210: 81ab c93d b4bc 1d3e 1cc2 293e e002 9a3e
00000220: 5db9 273e d597 0a3e 2c93 553d d9df 8f3e
00000230: 1a65 963e a81e 553d a315 1d3e 3abd c63b
00000240: 9409 a93c bbb1 bbbd e937 583c 5d79 9d3d
00000250: fc4a 21be 5cc3 a8be 10d6 94bd 6465 ddbe
00000260: 3fbe a43c e49b 5ebe dda6 dfbb 9996 21be
00000270: fb41 f8bd 4fe3 a1be 99a4 e9bd 64ff 85bd
00000280: 28fe ffbc 37c6 94be 63a5 2d3d 98df a2be
00000290: d744 213d 40af b0be 0341 87bd 96db 3abe
000002a0: 6100 6f3e ba0d 80be d480 bebd 5614 eebe
000002b0: 29e3 053b 9930 48bd 263c 26bd 28b5 8e3d
000002c0: d624 b83c c61a 903d 7e40 00be 06e1 0a3e
000002d0: a4ed afbd 91b9 f23c 0510 0ebe 9829 1d3e
000002e0: 95ab d83c bf96 84bb 6fb0 153e 90eb a73c
000002f0: a2a5 49be 2859 23be 32b9 23bd f41c 933e
00000300: 99c1 293d e373 b1be dfac b9be 8f11 76be
00000310: ab67 183d b6b7 aabb 0255 79be 97cd 1d3c
00000320: 5dde 01be 35f6 5a3c 10b1 9abd 6f9b 9c3e
00000330: 1774 173e 036f 663e 1855 53bd 5150 dd3d
00000340: 4a58 83bd 5a9d 15be 95f9 92be 7f42 413d
00000350: 9c6c 423e 9a58 8c3c 9402 353e c6da 26be
00000360: 533f bf3d 439f 64bc ce05 643e 9603 e43d
00000370: 3365 46be 85c9 8cbe 4ded 7bbd 9374 c1be
00000380: 6ffe ff3d 8608 cabd 94a8 76bd 4848 61be
00000390: 4845 dbbd c34b aebd 4a37 da3c 5126 1cbd
000003a0: 1d2f 85bd 76ad 063e 47a1 d13d c0a1 5f3e
000003b0: f845 fc3b 827e b2bc 8625 953c eed5 743d
000003c0: cd36 f6bd 67e3 e6bd ec87 56bd 2727 50bd
000003d0: 460c 25bd c92b 97bd dfe6 1cbc 2364 243d
000003e0: 853e efbd 7f05 ab3b 5d64 9dbd 7c23 eb3c
000003f0: e369 48bc 14ab 59bd e58c 86bd f58a 8d3d
-0.120903 -0.018481763 0.016010681 -0.050616913 0.009300499 -0.11258556 0.002117084 -0.053225894
-0.3102067 -0.12098331 -0.0095417285 -0.057652358 -0.18708482 -0.06601085 -0.38897082 -0.24242257
-0.1630013 -0.045179974 -0.07234614 0.023502273 -0.2544466 -0.19878002 0.07214153 0.1736588
-0.072327755 0.09412264 -0.14344078 -0.041642528 0.10835886 0.009918722 0.02191751 -0.037038498
0.026324358 -0.09365683 -0.038805783 -0.13017444 0.06965506 -0.19449092 -0.1714129 -0.131749
0.047070492 0.13900797 -0.06787348 -0.06648207 -0.1125442 -0.01471111 -0.22761264 0.1550062
-0.29311433 -0.20810878 0.04323881 0.19869655 0.010414264 -0.118257515 -0.063757285 -0.017300287
-0.039257832 0.12537962 -0.19519192 -0.13751833 -0.028958589 -0.05609904 -0.121264026 -0.07575991
-0.121320575 -0.11395175 -0.036679525 0.004449155 0.13617416 0.08048073 -0.13296594 -0.1527299
-0.13334908 -0.12473238 0.18311448 0.11181212 0.02316074 -0.0027080842 -0.08584163 -0.047353815
0.037573393 0.10677761 0.0071135834 0.030543627 -0.30538562 -0.1440792 0.083939195 0.2356992
0.08467333 -0.13354069 -0.1091952 0.005846979 -0.081395514 0.03343991 -0.28744423 -0.08027873
0.09865115 0.05838149 0.057103936 0.11191778 0.14014068 0.19375263 0.10182394 0.006240794
-0.09603594 -0.013906953 0.14729324 0.11442009 -0.0383982 0.13175644 0.0019244261 0.15382688
-0.17219724 -0.019985005 -0.111232795 -0.10320097 -0.030535389 -0.11305592 -0.05633762 -0.0877832
-0.029081576 0.13274671 -0.0825838 0.061371837 -0.020823373 0.1073535 -0.031713344 0.14352092
0.1469503 0.048880823 0.13771182 0.031993493 0.09847165 0.15404016 0.16577953 0.30080318
0.16379304 0.13534482 0.052142307 0.2810047 0.2937401 0.05203119 0.15340285 0.006065038
0.02063445 -0.09164759 0.013196924 0.07689164 -0.1575126 -0.32961547 -0.07267392 -0.43241417
0.020110248 -0.21739155 -0.0068253116 -0.15780105 -0.1212196 -0.31618735 -0.11408348 -0.065428525
-0.03124912 -0.29057476 0.042394053 -0.31811213 0.03937229 -0.34508705 -0.06604197 -0.18247828
0.23339988 -0.25010473 -0.09301916 -0.4649989 0.0020429587 -0.04887447 -0.040584706 0.069681466
0.022478502 0.07036357 -0.12524602 0.13562402 -0.08590248 0.0296295 -0.13873298 0.15347898
0.026449004 -0.0040462906 0.14618085 0.020498067 -0.1969209 -0.15951979 -0.039971538 0.28733027
0.041444395 -0.34658727 -0.36264703 -0.24030136 0.03720824 -0.0052098883 -0.24348834 0.009631536
-0.12682481 0.013364364 -0.07553303 0.30587336 0.14790379 0.22503285 -0.051594824 0.10806335
-0.06413324 -0.14610806 -0.2870604 0.047182556 0.18986744 0.017132092 0.17676765 -0.16294393
0.0933825 -0.013953987 0.2226784 0.111334965 -0.19374542 -0.27497497 -0.061505605 -0.37784252
0.12499701 -0.09864907 -0.060219362 -0.2200023 -0.10706574 -0.08510544 0.026637692 -0.03812248
-0.06503127 0.13152108 0.10235839 0.21839046 0.0076987706 -0.02178884 0.01820637 0.05977433
-0.12022171 -0.11273842 -0.05237572 -0.05081859 -0.040294908 -0.07381398 -0.009576528 0.04013456
-0.116818465 0.005219161 -0.076851584 0.028703444 -0.012232277 -0.05314167 -0.06569842 0.069112696

conv2.bias f4 [60]
00000000: c502 113d 2f1f 743d cd89 63bb 1f09 37be
00000010: 7b9c e03b 6d24 19bd 5b0c 2fbd 09a7 7abc
00000020: 38ad 6bbc 7cad 3a3e 6085 9d3c 8984 edbd
00000030: a837 30bd ff40 2bbe e827 dfbd 41a5 e0bd
00000040: 21de b33d ce9c e8bc 9be4 2fbe b1b3 d83c
00000050: b873 3c3c 54ac 6b3d 6b42 f8bd 533d 0d3d
00000060: 5705 cfbd da89 4dbc c058 1cbd 98d5 10be
00000070: 807e 113d d9f6 edbd 3247 ca3b 118f 0ebd
00000080: 864a 293e ae62 063c c64d 353d 561a 1a3d
00000090: 508c f3bd 96b0 b3bd 4f1c d4bd 42d9 07be
000000a0: 71ed 303d 7291 9abd e615 12bc ffcb 5bbd
000000b0: b7b2 98bd 4548 6cbd d5c6 01bd 9a47 a6bd
000000c0: 19f7 a2bd 8acb 0dbd 8e25 8ebd 2901 eb39
000000d0: 7cc4 103c ac76 2fbd 104f 803c 88c9 66ba
000000e0: 27ae d4bd 842f fe3d 54fb 76bd 8bcb 2abb
0.03540303 0.05960005 -0.0034719587 -0.17874573 0.0068545914 -0.037388254 -0.042736392 -0.015298613
-0.01438456 0.18230242 0.019228637 -0.11597545 -0.043021828 -0.16724013 -0.108962834 -0.1096902
0.08782602 -0.028395083 -0.1717705 0.026452871 0.011502199 0.05753739 -0.12122043 0.03448231
-0.1010844 -0.012545073 -0.038170576 -0.1414398 0.03552103 -0.11619348 0.006173038 -0.034804408
0.16532335 0.008202238 0.044263624 0.037622772 -0.11891997 -0.087739155 -0.10356962 -0.13266471
0.04319519 -0.07547273 -0.008916354 -0.053661343 -0.07455962 -0.05768611 -0.03168376 -0.08119126
-0.079572864 -0.034617938 -0.06940757 0.00044823557 0.008835908 -0.042837784 0.0156627 -0.0008803834
-0.103847794 0.12411407 -0.06029828 -0.0026061262

conv3.weight f4 [100, 60, 3, 3]
00000000: 661a 463a 3117 94be 027d 77be 4c3d f73d
00000010: 4ecc c2bd b0ba 5dbe 2398 203d 5823 023e
00000020: 2593 823c 501d 15bd 5cf2 31be 8d48 06be
00000030: 7d7b 58bd aa28 00be affd 27be 9ebc 9e3d
00000040: 8f36 123b ade9 a1bd 295f d5bc f98e de3c
00000050: 8d5b 0d3d d888 29bd bfad 62bd 8d93 2cbd
00000060: cc6c 87bc 09aa dcbc 0d1d d0ba 15aa 4dbd
00000070: 8038 503d f65f 143e f987 ac3d 5764 96be
00000080: 946c 4dbe e9a0 423e c37b f53c 01a4 38be
00000090: af5b 8cbd c2c9 d2bd 50ca 80be ebe4 dd3d
000000a0: 5076 3f3d bfda 943b e2dc 2dbd dd59 493d
000000b0: efcd bdba 93d5 60bc 1a76 88be 877f bcbe
000000c0: 42a9 5f3e 034f c83d a6f5 2abc 90ea e3bd
000000d0: eb6d 833d 28c6 2bbd 5321 38be cd15 fcbd
000000e0: 9a8e c5be 6d0e 073e e7ed dd3c 24ce 053d
000000f0: 091b 473d 59a2 8ebd e0ec 41bd cbcd d8bd
00000100: 9196 eabd b7d4 073d 8a8d 14be 101c 663d
00000110: 5f14 aebc 6789 e9bd f235 553d 1127 c03d
00000120: e5c3 993d 4192 2abd 9e0b ad3d a33e d03c
00000130: ccc6 84be 3f90 16be 9efc 923d 7a9b dd3d
00000140: 2a3a 71bb 00b5 cbbc 2741 cbbd d8cd 90bd
00000150: da23 073d f9a5 2b3d 7b7f 063e 065b 3cbe
00000160: 8e59 1e3d 65a1 ba3c 0da8 82be c46e abbd
00000170: 8d95 bfbe b777 b43d 06f9 1c3e 5894 14bb
00000180: 6679 483d 0867 b43d 4c99 8dbd 686b 0dbe
00000190: 54bf 28be 6fd5 60be ecd2 b63d dacb 873c
000001a0: a1c8 9abd b8b8 cdbd 9a6a 2b3d 9d09 67bd
000001b0: 45ae febc 26ef b33d 6a30 6f3d d1c5 243b
000001c0: 3a15 543c 1e75 933c f871 9dbb d351 63bc
000001d0: 0ad5 3c3a 299c bcbb 3570 70bd a280 38be
000001e0: 63d4 95bd 4121 58be e8af 6dbe d01f cd3d
000001f0: bab3 833d 3f86 bf3b 8562 57bd 5b97 3c3b
00000200: edb7 043c f6a6 113d 82c8 4abc 5a5d 3e3d
00000210: 852b 2f3d 6ead a63c e23d e03b 4b24 1ebe
00000220: ee5d 8cbd f404 4a3d e8f4 173e dc76 cb3d
00000230: bc89 62bb eaed a9bd 6d83 18bd 88b0 f5bd
00000240: 7911 f5bc 4fea b7bd 3e83 86bd 1d1f d0bc
00000250: 5889 523c fae8 1ebd 3d07 c23d f821 663e
00000260: 9254 fe3d 7acd a1bd 4830 63be 3637 e7be
00000270: b12f 393e 27d9 b63d c927 703c ecb2 36be
00000280: 69a9 543c 742c 5fbd 2ba8 69bd c289 6ebd
00000290: 057e a23c 948e 03be f5d4 01be 559e 84be
000002a0: 0752 183e 62e1 bf3d 2c53 a43d f2f5 023d
000002b0: 9c91 50be 076e 36be d35b 00be dcc9 903d
000002c0: 25aa e4bb 6554 4d3c 26e6 c93d 40cc ae3c
000002d0: a4e2 1dbd ae1a c6bd 0012 4ebe 2efe 78bd
000002e0: d886 863e c517 e73d a917 86be c27c 173c
000002f0: ee14 d33c 33ef bbbd 6774 1dbb 1785 3abe
00000300: 33ae f4bd 59d7 fa3b 4626 93bd d714 013e
00000310: 1654 d33d fb6d 90bc 7824 97bd 7b3f 0ebe
00000320: 1514 36bd e149 973d 56a1 4abd 42f4 c13b
00000330: c264 163e 00fd c33d 51fa ffbd f188 a2bd
00000340: 8a39 67bd effa b03c 1166 963c 280a a83d
00000350: 37ce 2ebd de35 ee3d 88b0 23bd 9ddf 733b
00000360: 640c 2a3c c46f 3fbc 9a09 b2bc feaa b83c
00000370: 1efe b73c 8425 36bc 1e1a e73c 60ab f7bb
00000380: cbb8 b0bc 2887 e6bd fc61 7cbd 0730 3a3d
00000390: 9814 0dbe 90b3 9eb9 c9bf 29be c8a3 f63d
000003a0: 01a4 1b3e cc67 343d a02c 15be cf22 09be
000003b0: e8b1 51be ecad 5ebd e02c d63d 900e 853d
000003c0: 80d6 923d 9e39 76bd c969 31bd 18eb 67bd
000003d0: 510d 7f3d 7c30 5a3d 92ad bf3d 46b6 6b3c
000003e0: 8b66 11be c403 65bc 7e9c 913d 04bb 8f3d
000003f0: 5a71 15bb fed2 31be 19e6 56be cd07 0b3e
0.0007557034 -0.28923944 -0.2416878 0.12072238 -0.09511624 -0.21653247 0.03920759 0.12708795
0.015939305 -0.036404908 -0.17377609 -0.13113613 -0.052852143 -0.12515512 -0.16405366 0.077508196
0.0022310351 -0.07905898 -0.026046352 0.027167784 0.034511138 -0.04139027 -0.05534148 -0.042132903
-0.01653137 -0.026936548 -0.0015877798 -0.05021103 0.050835133 0.14489731 0.08424372 -0.29373428
-0.2006095 0.19006695 0.02996624 -0.18031313 -0.06853425 -0.102923885 -0.25154352 0.10834678
0.04674369 0.004542678 -0.04244698 0.049157966 -0.0014480929 -0.013722795 -0.26652604 -0.36816046
0.2184191 0.09780695 -0.010434544 -0.111287236 0.064174496 -0.041937023 -0.17981462 -0.12308846
-0.3858536 0.13189097 0.02709098 0.032667294 0.048609767 -0.06964559 -0.047345042 -0.10586127
-0.114544995 0.033161845 -0.14507118 0.056179106 -0.021249948 -0.114031605 0.0520534 0.09382451
0.07508067 -0.041643385 0.084494814 0.025420493 -0.2593292 -0.14703463 0.07177089 0.108206704
-0.003680835 -0.024866581 -0.09924536 -0.070705116 0.032993175 0.04190633 0.13134567 -0.18394098
0.038659625 0.022782037 -0.25518838 -0.08370736 -0.37418786 0.08811896 0.1532937 -0.0022671428
0.0489439 0.08808714 -0.06914005 -0.13810503 -0.16479236 -0.21956418 0.08926949 0.016576696
-0.07557798 -0.10044998 0.04184971 -0.056405652 -0.031088958 0.08785848 0.05839578 0.0025142322
0.012944514 0.018000182 -0.004804846 -0.013874489 0.0007203376 -0.0057559204 -0.05870076 -0.1801782
-0.073159 -0.21106435 -0.23211634 0.100158334 0.064307645 0.005844861 -0.05258419 0.0028776738
0.008100492 0.035559617 -0.012376906 0.046475746 0.042766113 0.02034637 0.0068433145 -0.15443532
-0.06853853 0.04932113 0.14839518 0.0993478 -0.003456696 -0.08297332 -0.037234712 -0.11996561
-0.029915558 -0.08980238 -0.06568001 -0.025405461 0.012850128 -0.038796403 0.09474037 0.22473896
0.12418474 -0.0790052 -0.22186387 -0.4515931 0.18084599 0.08928137 0.014657923 -0.17841691
0.012979844 -0.054485753 -0.057045143 -0.058236845 0.019835481 -0.12847358 -0.12678893 -0.25902048
0.14875041 0.0936916 0.08023676 0.031972833 -0.20368046 -0.1781541 -0.12535028 0.070697516
-0.0069782906 0.012532328 0.098583505 0.021337628 -0.03854622 -0.096730575 -0.20124054 -0.06078928
0.26274753 0.112838306 -0.26189926 0.009246053 0.025766816 -0.09176483 -0.002402568 -0.18214832
-0.11947288 0.007655066 -0.071850345 0.12605606 0.103187725 -0.017630568 -0.07380003 -0.13891403
-0.044452745 0.07387138 -0.04947027 0.0059190104 0.14686874 0.0956974 -0.12498916 -0.07936276
-0.056451358 0.02160403 0.018359216 0.08205062 -0.04267713 0.11631368 -0.039963275 0.0037212141
0.010378931 -0.011684362 -0.021733094 0.022542473 0.02246004 -0.011117343 0.028210696 -0.0075582713
-0.021572491 -0.11256248 -0.061616883 0.04545596 -0.13777387 -0.00030269893 -0.16577066 0.120429575
0.15199281 0.0440443 -0.14567804 -0.13392185 -0.20478022 -0.054365084 0.10457778 0.06496918
0.07169819 -0.06011354 -0.043313775 -0.056620687 0.06226856 0.053268895 0.09359278 0.014386719
-0.14199273 -0.013977949 0.07109927 0.07018092 -0.0022803158 -0.17365643 -0.20986213 0.13577195

conv3.bias f4 [100]
00000000: a4bd c93c 598b 81bd 9ecb 09be 79bf f3bd
00000010: 8dac 96bd 8b96 6cbd 2702 a6bd a903 12bd
00000020: 6b7f 3cbc 8694 413c 73f9 01be 75d3 49bd
00000030: 184e 7c3a 5737 4abd e5b7 573c e038 80bc
00000040: 98fe 42bd c996 edbd c55b b23a e44e 92bc
00000050: 7be1 a6bd 00ef a5bd 1b36 d7bc 712d 38bd
00000060: fbe8 1bbd 8d58 193d 2dfd bcbd e6a6 c6bc
00000070: 2601 71bd fc6c 00be 8e1e aabd ff46 603b
00000080: c28f f1bd c490 51bd 3e9e 1bbd 9a3a 50bd
00000090: 5e61 28bd e996 0c3d 6f22 ffbd 7661 09be
000000a0: 94ea 56bd 1d04 13be a3c2 e6bd b61a 22bc
000000b0: 7a48 be3a 2787 c4bd 36fa 703c 2eb5 37bd
000000c0: adc3 d5bd bde6 7bbc 07c7 e5bd a450 973c
000000d0: b2f9 7dbd 6f75 0bbd 2f71 18be 3914 efbc
000000e0: bdf2 823d 4ca5 c7bc 09fb b6bd 1496 f8bc
000000f0: e4fb 58bd 2e93 a2bc 16c6 913c 8976 95bd
00000100: 628e 7cbc fab5 c1bd 5bc2 bfbd e86d 3ebd
00000110: 72b8 90bd 2913 063c e52e 54bc 7fe8 8ebd
00000120: 5fa5 debd 09f1 2abd eda6 4dbd 25ae 3bbd
00000130: b840 c3bc 73ed 64bd ca4d 12bc 1210 f4bd
00000140: 39e3 a23c 23b2 96bd 0bfe 17bd bbc4 c7ba
00000150: 311e eebd c17d 09bd 9a24 ffbd 1bba 9bbd
00000160: d8a6 d4bd dca3 2fbc 1577 c2bc 4382 05bd
00000170: 8742 10bd cfaa 37bd 94af 82bd a412 78bd
00000180: fc94 173d 9096 28bd a3b3 d7bc a70c 2ebd
0.02462656 -0.063254066 -0.1345658 -0.11901755 -0.0735713 -0.057760756 -0.08105879 -0.03564802
-0.011504988 0.011815196 -0.12692814 -0.049273927 0.0009624674 -0.049369182 0.0131664025 -0.01565212
-0.04760608 -0.116010256 0.0013607672 -0.017859884 -0.08148476 -0.08102226 -0.026270917 -0.04496521
-0.038063984 0.037437964 -0.09227977 -0.024249505 -0.058838986 -0.12541574 -0.08306609 0.0034222004
-0.11794998 -0.05116345 -0.03799271 -0.050837137 -0.04110848 0.034323607 -0.124577396 -0.13416085
-0.052469805 -0.14357038 -0.11267593 -0.009894064 0.0014517449 -0.09596091 0.014708092 -0.04485052
-0.10437713 -0.0153748365 -0.11219602 0.01847107 -0.062005706 -0.03404754 -0.14886926 -0.029184448
0.06393955 -0.024370812 -0.089346 -0.030345 -0.052974597 -0.019845571 0.01779465 -0.072979994
-0.015414806 -0.094585374 -0.09363242 -0.046491534 -0.0706643 0.008183279 -0.012950634 -0.06977939
-0.10871386 -0.041733775 -0.05020802 -0.045820374 -0.023834571 -0.05589051 -0.008929679 -0.11917128
0.019883739 -0.07358196 -0.03710751 -0.0015241125 -0.11626852 -0.033567194 -0.12458153 -0.07603856
-0.103833854 -0.010720219 -0.023738423 -0.03259493 -0.035219695 -0.04484063 -0.06381145 -0.060564652
0.037007317 -0.041159213 -0.026330775 -0.042492535

fc1.weight f4 [256, 400]
00000000: 4f8f 1d3b 3e00 6e3c f8dd b63c bb64 79be
00000010: 3b43 37bd 2cf7 2cbe 21b3 403c df4f bcbc
00000020: 2447 00bc e8ab fcbd b4e2 a1bd f99b fabd
00000030: 07c8 4e3d dce7 05bd 1aa9 d33c ed87 94bd
00000040: ceae 82bd eb71 6b3d 1530 173e 142e 67be
00000050: ffca 97bd 2524 4dbd ec4f 36bc 2181 44bd
00000060: 9843 3abe 4730 363c ba94 8d3d bb84 5abd
00000070: 3d85 acbc 3b65 063d 14ab dfbc 9ad6 ab3c
00000080: 53b8 c23c e659 8dbc 5553 ad3c fb7e 15bd
00000090: 70d8 61bd 5969 f5b9 e143 9c3d 44af d03c
000000a0: f44f aa3c e267 463d 721a f53c db81 bb3c
000000b0: 6409 0dbe 9c08 21bd 165b b1bd ff98 633d
000000c0: ef5a c6be 53e6 803c 2b9a 09be 69e9 513d
000000d0: fca4 92bc 52c2 e23d d890 333d 25c2 f4bc
000000e0: 271a 5fbd 53e8 053e 3166 a63d f972 d23d
000000f0: 5a02 ab3d e856 ea3d e721 463d 1e8e 763d
00000100: 4063 023e e67f 043e cb80 713d a18b 0b3e
00000110: eed0 40bd 12f6 33bd 59c1 14be a9ad 903d
00000120: 6d5e dabd 0e96 573d 3494 523d 45e3 003d
00000130: 122e c33b adc9 26bd 9d4c 713c 8eea 263d
00000140: 7879 4bbb 0f31 a6bd b029 4f3d 1637 c7bd
00000150: 03b3 c1bd c5f5 61bb 5942 bebd 7bd8 1abd
00000160: fd88 6fbd cd95 6e3d 7b92 c83b 1133 3abd
00000170: 1632 81bc eaf1 ef3c a886 a73c 70e7 983b
00000180: d71b 4c3c f432 80bc 9746 943c 6495 923c
00000190: a71f e8bd b612 143e 629f 493d 579c b73d
000001a0: e215 933d 635a a93c 7b22 a73d 8676 853c
000001b0: 46c0 c03c 58d1 afbb 1ec3 853c f055 843b
000001c0: a1f7 4bbe 52f5 943d 527e 98bd c7d2 a1be
000001d0: cbd8 5abd fa6c e73d cace 16bd 4eee 8f3b
000001e0: 78c6 43be 44b5 13be 0cef 9cbd e596 3fbd
000001f0: 0e28 8fbd e113 0e3e d36d c7bd ca2b 82bd
00000200: 224a edbd 2349 bd3d efa9 2cbe 9fb3 a8bd
00000210: 9c0e e63c 62b0 94bd 70df a53c 0438 38bd
00000220: 4659 913d e168 5f3e f2d1 be3c fd04 3e3e
00000230: 5ace 1c3d cccb c4bc ab8a 0b3c 787a d5bc
00000240: 37ea 003e 3ff9 213d ed8e d2bd 496c 843c
00000250: 0505 b1bd d3c3 8fbd 77aa 9cbd 163a b13d
00000260: 1a9e cabd 2189 6abd e1ea d63d 05f5 0c3a
00000270: abcf ca3d a8b0 04be af18 6bbd 096d adbd
00000280: e677 c4bc e905 823b 3af1 293d 0650 3b3d
00000290: d8a9 f7bc 9fe5 b3bd 6788 c2bc 4c77 97bd
000002a0: dd04 30be 26f9 fdbd e88a 8bbd baaf 32bd
000002b0: 0512 90bd b5b5 083d 125c 3a3e d104 b83d
000002c0: 9af6 0e3d c4cf 1dbe 1349 61bd bf94 84bd
000002d0: 1037 88bd 2fd7 2c3e 3433 0fbe c66e a6bb
000002e0: 2d01 c2bd 4155 2a3d 055b fc3d 570e 5a3d
000002f0: e6ee 523c 5488 3abd 29be a2bd 138e ccbe
00000300: b36a 12be 018d 3dbe dbb7 fcbd 4772 8cbd
00000310: 1045 bf3d d945 a0bd 8e2f 9d3d fd83 493b
00000320: 01e6 ca3d 354a 85bd 36fe a3bc ee1c 8dbe
00000330: 7b79 6c3d 5334 14bd c33d a83d 2daf d13c
00000340: b669 fbbd f150 9a3d 61a4 34bd 4818 7cbd
00000350: 9eb1 2cbb a210 153d c676 483d 613d 2fbd
00000360: bfc4 5dbc d984 113d 3d11 863d d9d3 1abe
00000370: db16 1bbd e280 753a 8c1d f4bd 2455 95bd
00000380: bb94 463d f43c 533e 6694 1cbd 411a 85bc
00000390: 8c2d 37bd 432e 9cbb 17c7 06bc 2974 24bd
000003a0: 18aa 53bd 0093 b5bd b99d 173e 9600 b4bd
000003b0: c75b 2d3d dae4 103b 5cb1 debc 3b54 31bd
000003c0: 4241 9a3d 3e32 aabc 2f7d 74bd 8bfd c5bd
000003d0: 557c c23c f363 e63c 90fe 843d 268a 873d
000003e0: 5641 54bd 5292 203d 2f2f fd3c 435b 1a3c
000003f0: 0d50 a13c bbf2 e53d ca0b f03c e122 2c3e
0.0024041717 0.014526425 0.02232264 -0.24354832 -0.04474185 -0.16891164 0.011761458 -0.022987304
-0.007829461 -0.12337476 -0.07904568 -0.12236781 0.05048373 -0.03269182 0.02583747 -0.07252488
-0.063809976 0.057481688 0.14764436 -0.22576171 -0.07411765 -0.0500833 -0.011127453 -0.04797471
-0.18189847 0.011119909 0.06913133 -0.053349238 -0.021059627 0.032811385 -0.027303256 0.020976353
0.023769533 -0.017254781 0.0211579 -0.03649805 -0.05513805 -0.00046808532 0.076301344 0.025474198
0.020790078 0.048438914 0.029919837 0.022889068 -0.13773113 -0.03931485 -0.086599514 0.05556583
-0.38741252 0.015734827 -0.13437717 0.051247988 -0.017900936 0.1107222 0.043839306 -0.029877732
-0.0544683 0.13076906 0.0812496 0.102758355 0.08350058 0.11442357 0.048372176 0.060194127
0.12733173 0.12939414 0.058960717 0.13627483 -0.04707425 -0.043935843 -0.14526881 0.07064373
-0.106625415 0.052633338 0.05141087 0.03146674 0.0059564197 -0.040719677 0.014727739 0.040751033
-0.0031047743 -0.08114826 0.050576866 -0.09727304 -0.09457972 -0.0034478765 -0.092899986 -0.037804108
-0.05848025 0.05824833 0.0061209775 -0.045458857 -0.015770953 0.029290158 0.020449951 0.0046662614
0.012457809 -0.015649296 0.018100066 0.0178935 -0.11334162 0.14460263 0.049224265 0.08965366
0.07181908 0.020672983 0.081608735 0.016291868 0.023529183 -0.005365532 0.01632839 0.004038565
-0.19918682 0.07273354 -0.07445969 -0.31606123 -0.053429406 0.113000825 -0.036818303 0.004392422
-0.19118679 -0.14424616 -0.07662782 -0.046774764 -0.06990062 0.1387477 -0.09737744 -0.06356008
-0.11586405 0.09242465 -0.168617 -0.08237385 0.028083138 -0.07260205 0.020248145 -0.044975296
0.07097106 0.21817352 0.02329347 0.1855659 0.03828273 -0.02402296 0.008516948 -0.026059374
0.12589346 0.03954434 -0.10281167 0.016164916 -0.086435355 -0.070197724 -0.07649701 0.08653657
-0.09893437 -0.057259683 0.10494018 0.0005377087 0.09902891 -0.12958014 -0.057396587 -0.084680624
-0.023982953 0.0039679897 0.041489817 0.045730613 -0.030232355 -0.08784031 -0.023746682 -0.07395801
-0.17189355 -0.12401037 -0.06813604 -0.043624617 -0.07034687 0.033376414 0.18199185 0.08985294
0.034903146 -0.15411288 -0.05500133 -0.064736836 -0.06651127 0.16878961 -0.13984376 -0.005079123
-0.094728805 0.04158521 0.12322048 0.05323633 0.012874341 -0.04554017 -0.079464264 -0.39952144
-0.14298515 -0.1851082 -0.12339755 -0.06857734 0.093393445 -0.078258224 0.07675086 0.0030748837
0.09907151 -0.065082945 -0.020018678 -0.27561134 0.05773304 -0.036182713 0.08214905 0.025596226
-0.12276022 0.075349696 -0.044102076 -0.061546594 -0.0026350985 0.036392815 0.048941396 -0.042783145
-0.013535677 0.035527084 0.06546257 -0.15119876 -0.037863594 0.00093652133 -0.11919698 -0.0729163
0.048481684 0.2062872 -0.03822746 -0.01624787 -0.04472117 -0.004766257 -0.008226178 -0.04014984
-0.051675886 -0.08865929 0.1480626 -0.08789174 0.042323854 0.0022109062 -0.02718418 -0.04329322
0.07531978 -0.02077591 -0.059689697 -0.096675 0.023740927 0.028123831 0.064938664 0.066181466
-0.05182012 0.039202042 0.030906288 0.009421173 0.019691491 0.11227938 0.029302496 0.1681018

fc1.bias f4 [256]
00000000: 30bd 6f3d 213a f23c 1b4e 7ebc 3d1f 9ebd
00000010: 2185 3bbd ad64 d73c 598c 67bd 636c 54bd
00000020: 0d3f cbbd 14bc 5bbd 9073 a8bd 0f0f 7ebd
00000030: 42f8 d2bd 00a0 e4bc dc47 6d3d c366 90bd
00000040: 721a 31bd b9d1 c43d 1f34 293d 8ab1 163d
00000050: 36b7 efbc d5aa 40bd 4dd6 193d a0d2 dd3c
00000060: 05e5 013d f220 dfbc 5792 0dbd 8da4 2ebd
00000070: 786f fbbd 3db1 6dbd 4187 00bd e312 6e3d
00000080: 67e1 01bb e6b7 b53a 8c7e cf3a 07e6 3bbd
00000090: a4da e1bc 71c6 2a3d 875c 053d a21c 4a3c
000000a0: 45ed f33c 1f8a eebc 2a13 443c e6c3 7ebc
000000b0: 7747 f33c 3cf2 7cbd 7ac4 89bd 094e 433c
000000c0: bc16 9d3d e6e7 81bb 47df a5bc cb0f 0cbe
000000d0: ce6d 4639 ec04 843d 65f6 2ebd 43c3 7abd
000000e0: 5141 1c3b a6ba 403d fb02 bf3c 4273 63bd
000000f0: cf9c 38bd bd2c 07bd c168 78bd 5501 43bd
00000100: 4dfa 2bbd 7e2d 9ebd 5d14 a43d 8e4e d9bd
00000110: b688 493d 2b33 b2bb a38f 49bd 56ba 7f3d
00000120: 85ab 903d 77e4 84bd 068f 5bbd b7d1 4c3c
00000130: 83aa dbbc f777 6cbd 2f6a 51bc 9a5a 67bd
00000140: cf87 633c 72e3 1abd f37e 04bd e9a6 5ebc
00000150: edf6 f03b be4f 98bd e914 d7bc a139 f53c
00000160: aae5 093d 07fe 143d 547f 1ebd 54c3 7b3d
00000170: a0d4 b4bc fd0b 8fbd 1e4c 413c 7a17 5bbd
00000180: 6e79 bcbd 19dd 4b3d 33c6 2cbd a552 87bc
00000190: 482c 1fbd cc95 6abd c41a cbbc 19bd 103d
000001a0: e531 55bd f543 18bd 6fc4 d8bd dfca efbd
000001b0: f820 093e 7cb6 cebd 79dd 62bd d1b9 a2bd
000001c0: 53fe 1cbd 9b30 3f3d 1dd6 0a3d 234d 25bd
000001d0: 51fb 1d3d dfd3 733d 2362 55bd ede2 f7bc
000001e0: 0e42 5a3d f777 97bd 5f7e 17bd f4e0 9abd
000001f0: 6568 24bd d374 94bd 705c 81bb be50 773b
00000200: 3313 f73d 254d afbd af75 89bd e124 4abd
00000210: 6f69 50bc 4c43 033e 940a a6bd fd9f 30bd
00000220: 4b31 80bd bd6a 86bc a9a4 87bd 37f3 6cbd
00000230: 23b7 7fbc bf7c c8bd 3bfb 56bd 3f88 96bc
00000240: e032 9dbc fddc 02bc 0636 373d b81a c33c
00000250: d4c2 1d3d 1ac3 c23d 6d5e 49bd 1753 b9bc
00000260: 9738 09bd f005 033e 1ea5 2abd 66ac 83bc
00000270: 0e85 c03c 3d65 f13d f9ac a2bb b4cb 9cbd
00000280: 833a cabd 3308 90bd 513b dc3b a887 ea3b
00000290: 94a0 8cbd 0255 b0bd f5af 40bd aaad 583b
000002a0: 4b1b 04bd 623c 2ebd 49aa 68bd 3fd2 b83c
000002b0: 8b2f 62bd ff74 dfbd 3fd6 df3c db1e c1bd
000002c0: 948f 03bc a827 8dbc 3f7d 45bc 5245 1abd
000002d0: 3a5c 3abd 6a6e 583d b28a 82bc 8652 9ebd
000002e0: 00b0 e6bd 342b 28bd ce6a dcbd fe7f e73b
000002f0: beed 5ebc 25d2 9ebd 7544 e73d b1ed 3f3a
00000300: 9669 ddbc 8a93 2c3d ec1c 983d e752 823d
00000310: 916e c43c 7409 f8bc 303d 0fbd 1456 47bd
00000320: 7f1e d8bc 926a 88bc 6247 8b3b 64b7 17bc
00000330: 4e32 083e f9d3 613c 7b51 ddbd 1261 54bc
00000340: a188 55bd 1873 40bc 3637 afbc fa0a 813d
00000350: 4a66 a33d 7988 85bc 577a 9bbd ab69 04bd
00000360: 650e 75bd 80a3 77bd eb15 43bc fb3e 8fbd
00000370: 4ddf 64bd 501b b63d 4208 98bd 0ed5 58bd
00000380: d82f a83c 60f9 803c a338 b03d 841b d33d
00000390: 807b 9cbc 0de6 4dbc 6d08 e33c 0a26 c63c
000003a0: 7c4b 343c 6e65 eb3c 65ee ba3c b1b2 cb3c
000003b0: 124c 6a3d 9720 5fbd 6c61 4f3d 3a7b 8e3c
000003c0: 3d64 e9bc 4983 4c3d 417a 6abd 5230 39bd
000003d0: 6a93 603d 52f7 ccbc c5e5 0dbd 3c4d ad3d
000003e0: b78e 3dbd ad87 10bd 3ed1 463d 3d6f fabc
000003f0: bc38 0fbd d91a 91bd 527a 26bd b651 8ebc
0.058530033 0.029568734 -0.0155215515 -0.07720802 -0.04578126 0.026293123 -0.05653033 -0.051861178
-0.09924135 -0.053646162 -0.08225167 -0.06202608 -0.10301258 -0.027908325 0.05792986 -0.0705085
-0.04323811 0.09610314 0.041309472 0.03679041 -0.029262166 -0.047037918 0.03755789 0.027077973
0.03171255 -0.02723739 -0.03456339 -0.042637397 -0.1227712 -0.058030356 -0.03137899 0.05812348
-0.0019818188 0.001386401 0.0015830561 -0.045873668 -0.027570076 0.041693155 0.032558944 0.012335928
0.029776225 -0.029118596 0.01196746 -0.0155496355 0.029697163 -0.06175445 -0.06726928 0.0119204605
0.07670352 -0.003964412 -0.020248068 -0.136779 0.00018923657 0.06446251 -0.04271545 -0.061221372
0.0023842643 0.047053 0.02331685 -0.05552984 -0.04507142 -0.03300165 -0.060646776 -0.047608692
-0.041986752 -0.07723521 0.080116965 -0.10610686 0.049202643 -0.0054382286 -0.04920925 0.062433563
0.07063965 -0.06488889 -0.053603195 0.012501172 -0.026814705 -0.057731595 -0.012781664 -0.05648289
0.01388736 -0.037814565 -0.03234763 -0.013589599 0.0073536546 -0.074370846 -0.026255088 0.029934706
0.03366629 0.03637507 -0.03869565 0.061465576 -0.022074044 -0.069847085 0.011797933 -0.053489186
-0.092028484 0.049771402 -0.042181205 -0.0165189 -0.03886059 -0.057271764 -0.024793036 0.035336588
-0.052049536 -0.037174184 -0.10584342 -0.117086165 0.13391483 -0.100934 -0.055386994 -0.07945598
-0.03832848 0.046677213 0.0338956 -0.040356766 0.038569752 0.059528228 -0.052095544 -0.030259574
0.05328565 -0.07395928 -0.03698575 -0.07562438 -0.04013862 -0.07248845 -0.003947787 0.0037737335
0.12064209 -0.08559636 -0.067118995 -0.049351577 -0.01272045 0.1281864 -0.08107486 -0.043121327
-0.06259402 -0.016408319 -0.06623203 -0.057849135 -0.015607628 -0.097894184 -0.052485686 -0.018375514
-0.019189298 -0.007987258 0.044729255 0.023816451 0.03851588 0.09509869 -0.049162317 -0.022622628
-0.033501234 0.12795234 -0.041661374 -0.016073417 0.023500945 0.11786888 -0.0049644676 -0.07656041
-0.098744415 -0.07032814 0.0067209383 0.0071572848 -0.06866565 -0.08609964 -0.047042806 0.0033062496
-0.03225259 -0.042538054 -0.05680302 0.02256119 -0.05522112 -0.10910987 0.02732384 -0.09429713
-0.008029837 -0.017230824 -0.012053787 -0.037663765 -0.04549811 0.052839674 -0.015935276 -0.07730584
-0.11264038 -0.041056827 -0.10762559 0.0070648184 -0.013606487 -0.07754926 0.11292354 0.00073214906
-0.027027886 0.04213289 0.074273914 0.063634686 0.023978503 -0.030277945 -0.034970462 -0.048666075
-0.02638173 -0.01665238 0.004250453 -0.009260032 0.1330044 0.013783448 -0.10806557 -0.0129625965
-0.052132253 -0.0117461905 -0.021388631 0.06300922 0.079784945 -0.016300427 -0.07591694 -0.032327335
-0.05982818 -0.06045866 -0.011907081 -0.069944344 -0.05587702 0.08891928 -0.0742345 -0.05293756
0.020530626 0.015743911 0.086045526 0.103079826 -0.019101858 -0.012567055 0.027713979 0.02418806
0.011004325 0.028734889 0.022818753 0.02486548 0.057201453 -0.05447444 0.050630018 0.017392743
-0.02849018 0.04992989 -0.057245497 -0.045212097 0.054828085 -0.025020275 -0.034642953 0.08461997
-0.04627868 -0.03528564 0.048539393 -0.03057062 -0.034966215 -0.07085199 -0.040643997 -0.017372947

fc2.weight f4 [128, 256]
00000000: f486 ad3d 3c99 3dbd 6cf8 03bd 976c bebc
00000010: 88f1 4d3d 4d8d 33be 4d71 07bd 3f63 903d
00000020: f31f bf3d b9ce 8c3d dcd4 323d 1210 913b
00000030: f5a3 0c3e 7aac e53d 60c3 b2bd 68af 2b3d
00000040: e44d 293d 99fd c8bd 2129 a03c 3ed4 9c3d
00000050: 580f 1abd d6f6 b0bd 0f4a 34bd cbce 373d
00000060: d6ad bfbd 1d8f d6bc 713a eb3d a080 e93d
00000070: c719 a03d e027 d1bc 029a e7bb 70ab 8dbd
00000080: 0b96 953b 23a5 f9bd aa46 9f3d 057d a03c
00000090: 42a7 ae3d e159 2cbc 8104 183d 6c76 0f3d
000000a0: 9b62 4a3d 5906 13bc 5e69 d9bc 4029 283d
000000b0: ca3a 893d 0e76 253d c103 2a3b aa32 1fbd
000000c0: 7645 c53c 6ac8 8a3e 8aed c43d 7732 28bd
000000d0: 1943 253b 6518 593c 9200 7738 177a 093e
000000e0: 3e5d 36bd 5aa1 993a e1d8 623d c672 2d3d
000000f0: d99d 60bc 03b6 75bd 55b6 8dbc bf92 28be
00000100: 4836 413d 1d6e 3bbe 7f93 67bd 17dc ac3d
00000110: d894 68be a5d6 14bd a020 8a3d 591e ca3c
00000120: ae5e 9abe b0cc 2b3c 057e 013e 59e8 15bc
00000130: 13e5 563c bd23 803c c2d3 94bd 410f 9bba
00000140: 483e 903d cc45 323d 8279 5cbd f646 a9ba
00000150: 505c d83c 4b33 38be 1476 2fbd 197d 1dbe
00000160: 3395 adbd 73b1 173e 32b6 2c3d fadf 0bbe
00000170: aeb8 55bb 66cb ef3d 449d 78bd d948 6c3d
00000180: 8b38 05be 2e28 cebc 6bb1 92bc fb2c 393e
00000190: 8e8a 453d fe44 773d 5895 243d c3b5 0a3d
000001a0: 15a1 12be f01a b13c 6759 903c 198f 613c
000001b0: c353 443e 74d0 7cbc e0ac a73d a5b1 ab3d
000001c0: 9292 1abd 8f41 37be db40 5cbd b07b 003c
000001d0: ad99 b83e eea6 63bd b67e 4c3d f994 623d
000001e0: f406 8c3d 7e3d 003e 7f6b 6d3d c968 adba
000001f0: ab6d 7ebd 76f6 ddbd 04e1 98bb 2c81 08bd
00000200: 0fc9 6f3e 590c 2c3d ec16 29bd 1c06 933d
00000210: 806f 363c c1be d8bd ded1 ba3c fbd3 6bbe
00000220: 087c 163e 1db6 e03d ad96 e53d f415 94bc
00000230: b86b 50bd 6817 16bd ab67 023d 4363 253e
00000240: a00a a53c f75f 7b3d a7cd 2dbd 8bb6 fabd
00000250: 50a9 073e 2f64 c1bb bfc8 a63c e52c 763b
00000260: 183c eb3d 213b 013c 1884 e83b 4853 a1bd
00000270: 5b90 bdbb 7169 10be 4191 5bbd f141 6abd
00000280: c71e 473e d5bb 1a3e 6063 83bb d56c 29be
00000290: 97c6 1cbc f81a bb3d 106b cf3d b8a7 a23c
000002a0: 99be f63c 41cb 2cbd bc12 a3bc e140 7a37
000002b0: 84a3 9a3d 84da 1f3d 5314 0c3d e8b3 6d3d
000002c0: 934d c7bd 6104 97bc a2a7 fbbd 8a79 203d
000002d0: 7ede 153c f1e7 ddbd b399 9b3d 8868 fc3b
000002e0: a5ea c4bc 30b9 a2bd 20e2 f13c 18b0 03bd
000002f0: 4608 05be f7f6 063b 1558 c2be d8dd 42be
00000300: 0d3f a0bd 898f 733e c6fc f73d df6e f7bd
00000310: 1a28 1fbe c283 013d 6ec9 b6bd d6d7 71bc
00000320: 0de0 d3bb 3399 c6bd 37c2 723d 51be 1d3e
00000330: d3ee 0dbe 12b4 d43c 61f1 ac3d a46b d33d
00000340: 20e7 163e 9508 f4bc 90b8 62bd f766 7cbe
00000350: c570 48be 9250 30bb 8cbd 82bd f531 013e
00000360: c509 8d3b 4c80 9cbc 6e04 07bc 686d 2fbd
00000370: d165 a4bc 0ee8 27be ceb1 34bd 6459 8bbe
00000380: 1945 a3be d7e3 013e 2bf5 283d a60c 27be
00000390: 524f 8a3d c816 03be b0f0 84bb 9da4 b03c
000003a0: 4897 813d 4a7e 683c 199e a73d f83b f83d
000003b0: db6b 05be 61e5 7c3d a8ac 033d 6bc8 0d3d
000003c0: 5470 353e d5da 2abb a1e3 e03d 3930 a53c
000003d0: 4e6f 693e f3c7 a3bd 8af6 cfbd 31e8 c2bc
000003e0: 744e ffbc d2b2 8e3b df63 2dbe a6c8 043d
000003f0: c369 77bd ac82 2a3d c478 9dbc f62b 1f3d
0.08473006 -0.046288714 -0.032219335 -0.023245139 0.05027917 -0.1753437 -0.033067036 0.0705018
0.09332266 0.06875367 0.04366003 0.0044269646 0.1373442 0.11214538 -0.08728671 0.041915327
0.041334048 -0.09813995 0.019550862 0.076576695 -0.03761229 -0.0864083 -0.04401594 0.044874948
-0.093593284 -0.026191289 0.11485756 0.114014864 0.07817417 -0.02553171 -0.0070679197 -0.06917465
0.0045650057 -0.121897005 0.0777715 0.019590864 0.08527996 -0.010519476 0.03711367 0.035025045
0.049410444 -0.008973681 -0.0265395 0.041054964 0.06700666 0.04039579 0.002594218 -0.038866676
0.024080973 0.2710603 0.096156195 -0.041063752 0.0025216995 0.013250445 5.888992e-05 0.1342548
-0.044522516 0.001172106 0.055382613 0.042345785 -0.013709509 -0.059988033 -0.017298857 -0.16462229
0.047170907 -0.18303724 -0.056537148 0.08440416 -0.2271303 -0.036337513 0.06744504 0.024672674
-0.3015036 0.010485813 0.12645729 -0.009149634 0.013116139 0.015642041 -0.07266952 -0.0011830108
0.07043129 0.043523595 -0.053826816 -0.0012914825 0.026411206 -0.17988317 -0.042837217 -0.15379752
-0.08475723 0.14813785 0.042165942 -0.13659659 -0.0032611298 0.11708717 -0.060696855 0.05768666
-0.1300985 -0.025165644 -0.017906865 0.18083565 0.04822784 0.06036853 0.040181488 0.033864748
-0.1431926 0.02161929 0.017620755 0.013767027 0.19172578 -0.0154305585 0.0818727 0.083834924
-0.037737437 -0.17896102 -0.05377279 0.007841989 0.36054745 -0.05557912 0.04992553 0.055317853
0.06837264 0.12523457 0.057963844 -0.0013230081 -0.062116306 -0.10838024 -0.004665496 -0.033326313
0.23416542 0.042003963 -0.041281626 0.071789 0.011134982 -0.105832584 0.02280515 -0.23030083
0.14695752 0.10972235 0.1121038 -0.018076874 -0.05088398 -0.036643416 0.031837147 0.16151147
0.020146668 0.061370816 -0.042432453 -0.122418486 0.13248181 -0.0059018354 0.020359395 0.003756338
0.11486071 0.007887633 0.007095825 -0.07877213 -0.005785031 -0.14102723 -0.05360532 -0.057191793
0.19445334 0.15110715 -0.004009649 -0.16545422 -0.009568832 0.09136003 0.101278424 0.019855365
0.03012018 -0.042186026 -0.019906394 1.4916267e-05 0.075507194 0.039026752 0.03419907 0.0580329
-0.09731593 -0.018434705 -0.12287833 0.03917841 0.009147285 -0.10835255 0.07597675 0.007702891
-0.024037668 -0.07945478 0.02952677 -0.032150358 -0.12991437 0.002059398 -0.37957826 -0.19029939
-0.07824526 0.23785223 0.121087596 -0.12081694 -0.15542641 0.031619795 -0.089251384 -0.014760932
-0.006465918 -0.09697189 0.05926725 0.15404631 -0.13860635 0.02596477 0.08444477 0.10323265
0.14736605 -0.029789248 -0.055351794 -0.24648653 -0.19574268 -0.0026903492 -0.063838094 0.12616713
0.004304143 -0.019104145 -0.008240802 -0.042828947 -0.020068081 -0.16397116 -0.04411488 -0.27216637
-0.31888655 0.1268457 0.041249435 -0.16313419 0.067534104 -0.12801659 -0.0040570125 0.021562869
0.06327683 0.014190266 0.081844516 0.12120813 -0.13029425 0.06174219 0.03214708 0.03461496
0.17718631 -0.0026070375 0.10980917 0.020164596 0.22796366 -0.07997122 -0.101544455 -0.023792358
-0.031165339 0.004354813 -0.16932629 0.032417916 -0.060403597 0.041628525 -0.019222625 0.038860284

fc2.bias f4 [128]
00000000: 586f e1bc cc7a a8bd c32b fb3d da30 dc3d
00000010: 5afc 99bd 7635 63bc 462f 5e3d f2ca f3bd
00000020: 3887 81bd 444d 0b3e 82f7 89bd ea74 fabd
00000030: b96e 2dbd 4daf e7bd 5c93 2c3e 5e8b b0bd
00000040: 9019 6abd 5d8d 8f3d be3e 713d 48a8 5dbd
00000050: b79f 333e e60f aabc fa3c b03d fdf0 873c
00000060: b141 1cbd e72d 143d 9cf0 54bd a657 f93d
00000070: d70e ee3d a3db eabc cda0 ebbd 0584 95bd
00000080: 946f 6a3d 459c 003e 7c2f c5bd 965a 49bd
00000090: 4641 59bd 039d 1a36 1fb8 263e 7c48 e1bd
000000a0: 711c 47bd c858 b8bd 4337 8fbd 872f bdbd
000000b0: 683d 763d 3576 d63d ee22 7c3d b1c7 85bb
000000c0: 2921 563d dc5d b5bd 9843 ccbd 8983 09be
000000d0: 1666 f9bc d993 0ebe f9e9 73bd b79a f8bd
000000e0: ca59 0bbe 10ef 9cbd a963 a33c 640c 6dbd
000000f0: dde3 b7bb 12b8 c63c 6004 263d e48d 743e
00000100: 0da2 f5bc 3858 4cbd 2ebc 15be dac0 14bd
00000110: b0ee ed3c 4f37 02bd 8539 b0bd 91e2 9d3d
00000120: 0a80 3fbd 6102 52bd c069 e43d 59a6 33bd
00000130: 7d59 e4bd ae54 9c3d c232 473c e1ef 57bc
00000140: 4ce4 72bd 08d3 f4bc 8fd1 babd c037 0a3e
00000150: 6182 babd 0f32 0bbe 8378 a7bd 731d 2c3e
00000160: 18dd 80bd c417 a3bd 79fe 90bc 8a8b 43bd
00000170: 0629 19be 8fca fd3d d159 7bbd 4bd5 153c
00000180: 8d98 c4bd f90d ccbc 0448 9b3d 5fab 2abd
00000190: d893 b6bd 10f6 523d 72a9 c0bc 02c0 93bd
000001a0: f1ff 233d 0b7e d8bc 1bbf 7fbc 64c8 debd
000001b0: 84eb 1e3d a7f3 babd 0632 74bd e53c a9bd
000001c0: c40b 4fbc 2579 6dbd 7c43 52bd e192 063e
000001d0: 02f4 0c3d 07e7 2a3e 3b9a 5bbc 0500 423c
000001e0: 07b5 9bbd d9ed 0f3e ae99 e8bd e064 4cbd
000001f0: a242 bf3d d55c afbd 1d1c cc3d d0cc 27be
-0.027518913 -0.08226547 0.12264206 0.10751505 -0.07518835 -0.013867727 0.054244302 -0.11903943
-0.06324619 0.13603693 -0.067366615 -0.12229331 -0.04234192 -0.11312733 0.16853088 -0.08620332
-0.057153285 0.07009385 0.058897726 -0.054115564 0.17541395 -0.020759534 0.0860538 0.016594404
-0.038148586 0.03617659 -0.051987275 0.12174921 0.11623924 -0.028669184 -0.1150528 -0.07300571
0.057235315 0.12559612 -0.096281976 -0.049158655 -0.053040765 2.303918e-06 0.16281174 -0.110001534
-0.04861111 -0.09001309 -0.06992962 -0.09237581 0.060117155 0.10471765 0.06155675 -0.004082643
0.052277718 -0.08855793 -0.0997383 -0.13429083 -0.030444186 -0.13923587 -0.059549306 -0.121388845
-0.1360847 -0.07662785 0.019944983 -0.057873145 -0.00561188 0.024257693 0.040531516 0.23882252
-0.029984498 -0.04988882 -0.14622566 -0.03631673 0.02904448 -0.031791028 -0.08604721 0.0770923
-0.046752967 -0.0512718 0.11152983 -0.043859813 -0.11149881 0.07633339 0.012158098 -0.01317975
-0.059299752 -0.029885784 -0.091220014 0.1349783 -0.09106899 -0.13593315 -0.08177283 0.16808109
-0.0629217 -0.07963517 -0.017699467 -0.047740497 -0.14957055 0.123921506 -0.061364952 0.009145091
-0.09599409 -0.024909006 0.07582095 -0.04166734 -0.08914918 0.051504195 -0.023518298 -0.07214357
0.040039007 -0.02642729 -0.015609528 -0.10878065 0.038798824 -0.09128504 -0.05961802 -0.08263568
-0.0126370825 -0.05797686 -0.05133389 0.13141967 0.03441239 0.16689692 -0.013403471 0.011840825
-0.076028876 0.14055575 -0.11357437 -0.04990089 0.09338881 -0.08562628 0.099663 -0.16386724
